p1_navigation/navigation_checkpoint.pth (torch, 9111 bytes, 6 tensors)

fc1.weight f4 [32, 37]
000000 e5 61 52 3d 8c 93 64 3d 6e 31 04 3d 8d 02 f9 bb
       0.05136289 0.055804774 0.032273702 -0.007599181
000010 d4 24 83 bd 76 8c 36 3e 84 d2 cb 3d 05 7b 16 3d
       -0.06403509 0.17827019 0.09952262 0.036738414
000020 e3 57 4d 3e 94 fc 46 3e 99 64 6d 3d 3e a5 9e bd
       0.20053057 0.19432288 0.057957266 -0.07746361
000030 52 94 99 bc fd 12 c9 bd d7 31 72 be 4f 70 ee 3d
       -0.018747482 -0.09818075 -0.23651825 0.11642515
000040 27 04 54 3d ac ba 9e 3d d6 72 ac 3c c1 9b a4 3c
       0.051761772 0.077504486 0.021050852 0.0200938
000050 c2 01 5c 3e 3f e2 98 3d b6 86 06 3e 52 23 f2 3c
       0.21485046 0.07465028 0.13137326 0.029557858
000060 b0 48 32 be b6 9d f6 3e c5 07 dd be 9a 7c 3e be
       -0.1741054 0.481672 -0.4316999 -0.18602219
000070 25 18 c4 be 7b 85 b6 bf f8 25 1b 3e 3c 3d a2 3c
       -0.3829967 -1.4259485 0.15151203 0.01980459
000080 95 ce 8a bd 7a 1c 3b 3c a6 bc d4 bd 28 99 23 3c
       -0.06777684 0.011420364 -0.10387544 0.009985246
000090 f8 99 64 bb 04 49 ba 3e 88 89 eb 3c 37 24 5d 3e
       -0.0034881812 0.36383832 0.028752103 0.21595846
0000a0 61 d5 d9 3d b5 84 52 be c0 de 99 3e f6 56 ce bd
       0.10636402 -0.20558436 0.30052757 -0.1007518
0000b0 77 ee 15 bd 73 2e dc bd cc 70 90 3e b5 38 16 3d
       -0.03660437 -0.10751047 0.28211057 0.036675174
0000c0 9a 46 ad 3c f5 b2 59 3e 3a 17 53 3e 3e 14 d2 3d
       0.02115183 0.21259673 0.20614329 0.10257767
0000d0 cd 07 a0 3e 92 75 ce 3c 57 7e 1f 3d d0 bc f2 3d
       0.31255952 0.025202546 0.038938846 0.118524194
0000e0 07 86 88 be a6 38 c1 bd 30 ba 88 3c 96 0b 8d 3d
       -0.26664755 -0.09434633 0.016690344 0.068869755
0000f0 07 00 2e 3e a7 be 23 3e cf a9 3f 3e da a9 e4 3d
       0.16992198 0.15990697 0.1871712 0.11165209
000100 38 ad b4 3d e1 c9 3a bd 0d ec 8b bd 82 9c d0 3d
       0.08822101 -0.045602683 -0.068321325 0.101861015
000110 e8 f5 1b 3e 5b 55 65 3e 83 fb 52 3e b6 40 52 3d
       0.15230525 0.22395842 0.20603757 0.051331244
000120 58 a8 1d bd b0 c4 1f 3d c7 e6 22 3e fe 14 be be
       -0.038490623 0.039005935 0.15908347 -0.3712539
000130 95 3b 1d 3e 36 3e 39 3e 7d a6 7d 3e 4b f2 27 bf
       0.1535476 0.18090138 0.24770541 -0.65604085
000140 6a fb 12 3c 4f 3e ad 3c 3e 6b 63 3d 67 37 c0 3e
       0.008971075 0.021147875 0.055522196 0.3754227
000150 c1 52 70 be 24 e0 59 3d ea e6 1c 3c 76 53 96 be
       -0.23469068 0.053192273 0.009576539 -0.2936055
000160 45 8e 16 bf c6 62 5d 3d a0 c3 97 bd 96 a4 35 3a
       -0.58810836 0.054049276 -0.074103594 0.0006929127
000170 29 d7 0f 3e 06 e9 8d 3e 71 75 dc bc f5 42 8e bd
       0.14046921 0.27716845 -0.02691147 -0.06946365
000180 17 53 1b bc 77 63 8a bc 16 37 83 be b1 2b 76 be
       -0.009480259 -0.016893132 -0.25627965 -0.24040104
000190 4f ed dd be 14 59 c4 3e c6 6e dd be 04 6c 8a 3d
       -0.43345115 0.3834921 -0.43248576 0.067588836
0001a0 11 b6 fc bd 76 ac ec bd 13 7b 1b be 71 48 fd bd
       -0.12339414 -0.11556332 -0.15183668 -0.12367333
0001b0 26 1d f6 3d 26 23 74 3d a3 61 18 bd 87 5b 9f bd
       0.120172784 0.059603833 -0.03720249 -0.07781129
0001c0 6a b2 55 3e 58 48 2e 3e 19 f8 71 be bc 6b 34 bf
       0.20868841 0.17019784 -0.23629798 -0.7047689
0001d0 a9 5a 08 bf 0e 30 31 3e 76 c0 e3 3d 4f 0c 75 be
       -0.53263336 0.17303488 0.111206934 -0.23930477
0001e0 21 f1 ee be ac 83 a2 bd a6 70 16 3d c6 f9 88 3c
       -0.46668342 -0.07935271 0.036728524 0.016720664
0001f0 3e d8 71 bd ed 79 14 3d 55 b0 3f be 94 14 ab 3d
       -0.059044115 0.03624909 -0.18719609 0.08353534
000200 8d df d9 bd 6c 44 cf bd cd 1b 12 bf 5b 4e 18 be
       -0.10638342 -0.10120472 -0.5707367 -0.1487364
000210 17 27 33 3c 0f ba 96 3d a2 62 27 3c 51 bf a1 bb
       0.010934613 0.073597066 0.010216387 -0.004936137
000220 de 74 19 bf 06 8f 22 3e cd 1a 26 3d 7c 17 e5 3d
       -0.5994395 0.15874872 0.040552903 0.1118612
000230 6f cd 05 bf c0 b9 87 3e b0 53 7b 3d d4 a9 e5 bd
       -0.5226659 0.26508904 0.061359107 -0.11214033
000240 02 8b e4 3d 32 18 86 bd 20 52 b6 bc 5f dd 08 bd
       0.11159326 -0.06547584 -0.022255957 -0.03341424
000250 79 d7 5a be d4 1d 19 be 41 6c 84 be df b9 5e be
       -0.21371259 -0.14952785 -0.2586384 -0.21750592
000260 a9 4b 09 bf dc b8 3d bf 0b 18 44 3e dc e1 89 3e
       -0.53631073 -0.741102 0.19149797 0.2693013
000270 93 c7 14 bf c4 1c 32 c0 98 c7 48 bd 1c f1 e2 bc
       -0.58117026 -2.7830057 -0.049018472 -0.02770286
000280 b2 70 e9 bd 2f 45 db be 9e 4d 3e be ad 18 97 be
       -0.11398448 -0.4282622 -0.18584296 -0.29511014
000290 6f 19 86 be 09 75 54 3e f5 33 d4 be fa fa b4 bf
       -0.2619128 0.2074777 -0.4144589 -1.4139092
0002a0 b6 8e 76 3d 70 88 92 3b bb a2 10 be c9 e0 f8 be
       0.060194694 0.004471831 -0.14124577 -0.48608997
0002b0 ee 69 36 bd bd 68 67 be ae 71 d0 bd a0 10 95 3e
       -0.044534616 -0.22598548 -0.10177933 0.29114246
0002c0 91 1c 1a bf e3 83 fb bf 84 0e 27 3e d0 c6 56 be
       -0.6019984 -1.9649624 0.16314131 -0.20974278
0002d0 d1 eb 2f be 45 e9 dc bd 96 b8 48 bf 9f e5 58 3d
       -0.171798 -0.1078668 -0.78406656 0.05295336
0002e0 db 77 6a 3c 40 3d 83 3c bb 0a f6 3c 8f 1c 00 bd
       0.014310802 0.016020417 0.030034414 -0.031277236
0002f0 f3 d5 ed bc f2 04 99 bc 3b 6f 95 be 60 34 5a 3e
       -0.029032683 -0.018679116 -0.29186425 0.21309042
000300 38 82 f2 3d 58 ca a9 3e dc dc 82 3e 30 6b 63 bd
       0.118412435 0.3316219 0.25559127 -0.055522144
000310 44 2a a1 bb 7d 82 e8 bc 74 a4 02 3b 71 58 d3 3d
       -0.0049183685 -0.028382534 0.0019934447 0.10319603
000320 a5 9c ef bc 1b a4 43 3d a3 0b d5 bc d3 bb 9d 3c
       -0.029249499 0.047763925 -0.026006525 0.0192546
000330 32 3d f0 3b 47 c0 b0 3d ae 07 d3 3d 98 65 f9 3d
       0.007331514 0.08630424 0.10304199 0.121775806
000340 ce 73 02 3e 82 16 80 3d e2 29 e6 bd a0 d4 d9 3c
       0.12739488 0.06254293 -0.11238457 0.026590645
000350 ff 61 17 3e 99 87 2e 3e a3 e2 db 3d 91 86 ec 3e
       0.14783476 0.17043914 0.10736587 0.46196416
000360 86 f8 21 bf f0 9b 27 bf d2 b3 19 bf 85 dc 10 c0
       -0.6326984 -0.65472317 -0.6004001 -2.2634594
000370 54 79 7f bb 7b 16 c3 bb 26 3f 98 3b b6 ee 62 3e
       -0.003898223 -0.0059536076 0.0046461998 0.22161373
000380 80 78 92 3d 6d a3 6c 3d 76 bb d6 3d 0c e0 59 bd
       0.0715189 0.057773042 0.10484974 -0.053192183
000390 dd 9b 8a 3d 0e 6d 93 3d dc 61 36 3e b3 03 29 3e
       0.0676801 0.07198535 0.17810768 0.16505317
0003a0 19 c9 0a 3e a6 73 5e 3e e2 b4 42 3e 89 23 d4 3d
       0.13553275 0.21723804 0.19014314 0.1035834
0003b0 50 91 c2 3d 4d a5 36 be 7d a8 c9 3d 96 c3 40 3e
       0.095003724 -0.17836495 0.0984659 0.1882461
0003c0 13 81 81 3e d8 a7 1a 3f 29 b5 fd 3d c9 c5 95 3d
       0.25293788 0.6041236 0.12388069 0.07313115
0003d0 c1 ad a0 3d b7 de 81 bc f8 5c ae 3d 06 a2 89 3d
       0.07845641 -0.015853269 0.08513826 0.06720357
0003e0 06 4f 97 3d c9 60 5b bd ed ec 0c 3d 07 09 e3 bb
       0.073881194 -0.0535591 0.034405638 -0.0069285664
0003f0 c7 c5 13 3e d5 c1 0c 3e b4 35 d8 3d 21 2e a6 3d
       0.14430915 0.13745816 0.10557118 0.08114267

fc1.bias f4 [32]
000000 5b 84 49 bd 33 c2 97 3b 1e be 12 bd 9a e8 48 3e
       -0.04919849 0.0046313046 -0.03582584 0.1961998
000010 15 49 3b 3e c9 83 dd bd c9 fa 03 3e 39 c0 8e 3d
       0.18289597 -0.10816152 0.12888636 0.06970257
000020 17 4a e3 3d a4 f9 0c 3d d9 14 01 3e d9 49 56 be
       0.11098116 0.034417763 0.12605609 -0.20926608
000030 76 18 9d 3e a1 9d 18 3e d2 98 12 3e 86 4c 68 bd
       0.30682725 0.1490388 0.14316109 -0.056713603
000040 fb eb d6 3b 42 d7 10 3e d7 95 f2 3e 0c de 19 be
       0.006558893 0.14144614 0.47379944 -0.1502611
000050 c1 03 f2 bd 42 18 1e be 55 43 8e bd 55 ca 0e 3d
       -0.11817122 -0.15438941 -0.06946436 0.034860928
000060 08 c9 61 3e 67 27 23 bd 7d d6 87 bd d3 24 ee 3d
       0.22049344 -0.0398325 -0.06632707 0.116281174
000070 62 cd f2 3d 15 96 8c bd 18 ba 30 bd 27 32 5c be
       0.1185558 -0.068645634 -0.043146223 -0.21503507

fc2.weight f4 [16, 32]
000000 97 35 07 bf cc c2 81 3a 8d 50 84 be 13 b7 05 3f
       -0.52816147 0.0009899973 -0.25842705 0.52232474
000010 cb 42 7f bb ab c0 0e 3e a5 3a c8 3c 2f 4a fb be
       -0.0038949724 0.13940684 0.024442026 -0.49080035
000020 ef 97 a7 3c 5b 6e be 3e b2 97 13 be bb 42 07 3f
       0.02045819 0.3719357 -0.14413336 0.528362
000030 d3 7d c3 3d b8 03 02 be b3 5f 67 3e 9f cb 3a 3f
       0.095454834 -0.12696731 0.225951 0.7296695
000040 34 4d 53 bf 46 af c4 bd 57 ae ea 3d e5 7f ae 3e
       -0.8253968 -0.09603743 0.11459034 0.3408195
000050 4f 14 e1 be 1a 00 a8 3e 8b aa 90 3e b9 42 a4 bc
       -0.43960807 0.32812577 0.28255114 -0.020051347
000060 d0 e2 18 be 72 af 8a be fb 39 a5 be 78 20 00 3e
       -0.14930272 -0.2708698 -0.32270798 0.12512386
000070 a2 89 9d be 2d 3f 47 3e 2e 81 9c be cf fc da bc
       -0.30769068 0.19457693 -0.30567306 -0.026731877
000080 98 db 13 bf 1f e8 ba 3d 5b 4b 9c 3d 95 56 eb 3d
       -0.5775695 0.09126305 0.076315604 0.114911236
000090 ab e3 55 3e d7 76 1a bf 15 02 cd 3d 10 13 5f bf
       0.2088763 -0.60337585 0.10010163 -0.8713846
0000a0 94 b0 bb 3d 5d b3 e1 bd 05 fc 2e 3e f9 cd 05 3f
       0.09164539 -0.11020539 0.17088325 0.52267414
0000b0 15 da 3b bc d6 08 ab 3d c2 64 ad 3d dc 6f 26 bf
       -0.011465569 0.08351295 0.08466484 -0.65014434
0000c0 8b dd 18 bf 36 24 21 bf f2 9e b5 3d 8f 52 34 bf
       -0.5971305 -0.6294588 0.08868207 -0.70438474
0000d0 d3 41 e2 3d 5a 1f 42 3e 59 7a 4a 3e 50 aa 59 3e
       0.11047711 0.18957272 0.19773234 0.21256375
0000e0 b0 d0 59 bd c5 e8 97 bf 61 68 3b bf c7 4a 08 bf
       -0.053177536 -1.1867911 -0.73206145 -0.532391
0000f0 b6 7d 22 3e b2 6d bb 3d 08 e9 99 bf c8 a0 a1 bd
       0.15868267 0.09151782 -1.202424 -0.07891995
000100 2e 09 fe bd af 4b d1 3b 78 5a 60 3d b2 f6 98 3d
       -0.12404095 0.006387196 0.054773778 0.074689284
000110 a9 e8 31 bf b6 05 0f 3e e2 bb 04 bd 5b 80 8f 3e
       -0.69495636 0.13967022 -0.03240574 0.28027615
000120 5a 6f 8e 3d 92 d5 8c be 10 e9 74 3e b6 7a ca be
       0.069548324 -0.2750669 0.23917031 -0.39546746
000130 03 83 30 3d 92 73 83 3d a8 e9 c6 bd 4b 4c 4a be
       0.043093693 0.06418528 -0.09712535 -0.19755666
000140 c1 ac 2a bd 65 2a 03 3e a0 a0 65 3e 9e 71 00 be
       -0.041668657 0.12809141 0.22424555 -0.12543342
000150 0d 50 ad bd 11 51 b2 3c a9 59 18 3e 2f 51 bd be
       -0.08462534 0.021767171 0.14877953 -0.36976
000160 46 bc 8a 3e 29 02 91 3e 07 8f 98 bd 2c 56 99 3d
       0.27096766 0.2832196 -0.07449155 0.07487139
000170 38 7f 83 bd c4 7b 2e bd 7d 3d 22 3e af 59 11 bd
       -0.064207494 -0.0425985 0.15843768 -0.03548592
000180 40 05 e3 3d c2 b7 fc be 22 17 ac 3e 8e aa 24 be
       0.11084986 -0.49358946 0.336114 -0.16080686
000190 8a e2 67 3d 4b c8 53 bd 9a 09 e4 3d 85 0d 44 3e
       0.05661253 -0.051704686 0.11134644 0.19145782
0001a0 de d1 00 be 59 94 83 3e 15 d1 b9 be 22 4e 09 3e
       -0.12580058 0.25699118 -0.3629233 0.13408712
0001b0 b9 e4 97 be 4f c6 4d 3e 0c ee 11 3d 28 b4 a4 be
       -0.2966669 0.2009518 0.03562741 -0.32168698
0001c0 54 b4 38 be f6 1a 1a be cb c8 c3 bd f1 33 69 be
       -0.1803754 -0.15049347 -0.095597826 -0.2277372
0001d0 d0 fb 11 bd a6 f2 15 3d bf 71 bb be 02 81 8b bd
       -0.035640538 0.03660836 -0.3661022 -0.06811716
0001e0 a5 48 0c bd 62 7b 71 be 51 25 2e 3e 34 9a 00 be
       -0.034248967 -0.23582223 0.17006423 -0.12558824
0001f0 d1 59 ba be 26 62 4f be 76 cf 38 be 06 6b fc 3d
       -0.3639665 -0.20252284 -0.1804789 0.123251006
000200 fb fa 23 b9 66 d5 8f bc 78 50 bb 3d 1b 8d ae 3d
       -0.00015638389 -0.017557811 0.091462076 0.085230075
000210 5f ce 50 3e cc c9 bc 3e 34 0e b3 bc 7b b1 af 3e
       0.20391224 0.3687271 -0.021857359 0.34315094
000220 ca 1d 9c 3d bb 18 1c 3e 67 b3 cd 3b 78 9e 88 3e
       0.07622869 0.15243809 0.00627749 0.26683402
000230 fe bd 8b bd 2d 94 fd 3b fb b0 df bd af 86 9d 3e
       -0.068233475 0.007738611 -0.10922428 0.30766818
000240 9b 56 7a 3e 18 7d ee 3e 53 6e dc bc 23 6d ec 3d
       0.244471 0.46579814 -0.026908075 0.11544254
000250 26 29 95 3b 22 03 19 3e dd d1 b8 3d 50 4c f6 3d
       0.0045520244 0.14942601 0.09024403 0.12026274
000260 e7 7c 7b bc 00 76 f4 be f6 41 42 3c be cc 93 3e
       -0.015349603 -0.47746277 0.011856547 0.28867143
000270 35 ab af bd 75 72 ae be 31 77 2d bf f7 ac 28 bb
       -0.08577577 -0.340717 -0.67759997 -0.002573786
000280 ee f6 c3 be 61 a4 ef 3d 2f cd bc 3d 02 ab 73 be
       -0.3827433 0.11701275 0.09218823 -0.23795703
000290 0d 97 41 be 5d bc 41 bf ee b2 91 be 4a 37 55 bf
       -0.18905278 -0.75678045 -0.28456825 -0.8328749
0002a0 b9 68 d7 3d f7 d7 09 3d 3f 62 89 3d b7 12 0f 3d
       0.10518021 0.033653226 0.06708192 0.034929957
0002b0 e8 96 6b 3d 5a 20 f8 bc 12 f6 50 be bd af 1e 3f
       0.057516962 -0.030288864 -0.20406368 0.61986905
0002c0 57 fe 5c 3f b8 74 d1 be ed a9 19 bd 24 50 09 3e
       0.8632559 -0.40909362 -0.03751557 0.13409477
0002d0 79 97 17 3c 84 64 ce bd 73 3d 89 3d be b3 d8 bd
       0.0092524225 -0.100777656 0.06701174 -0.10581158
0002e0 ef a3 e1 bd 9f 39 91 bd c1 d0 c9 3e 43 54 7f bf
       -0.11017596 -0.070910685 0.3941708 -0.9973795
0002f0 ec 94 a2 3b d3 58 b7 bc fa 2b a3 bd d8 74 ea 3d
       0.0049616005 -0.022381222 -0.07967372 0.114480674
000300 e0 0e ec be 97 fe 58 be 5f 43 1e bd c1 4e a6 3e
       -0.461051 -0.21190868 -0.03863847 0.3248196
000310 51 99 2c 3f ad 9c 14 be e4 b4 32 be 1a 4a f8 be
       0.6742144 -0.14512892 -0.17451817 -0.48494035
000320 99 16 e5 3d 46 6d 2b bf 0a 8a 4e be 08 9c 48 3f
       0.11185951 -0.66963613 -0.20169845 0.78363085
000330 38 3e 19 3c 34 e7 61 3d db 44 94 3d d5 65 0e be
       0.009353213 0.055152133 0.07239696 -0.13906033
000340 16 a5 4c be 4e 7a 5b bf 47 13 93 3d 9c a0 ba be
       -0.1998485 -0.857335 0.07181411 -0.3645066
000350 a9 c0 e1 bd 3f e6 61 bd a6 ef 43 3d 7f 93 2a bd
       -0.11023075 -0.05515122 0.04783597 -0.04164457
000360 36 55 a7 3e fe 34 81 bf 4e 1d 51 be b9 f8 3d bf
       0.32682198 -1.0094297 -0.20421335 -0.74207646
000370 24 7b 73 be 42 a3 a8 be 93 eb ac bf 0a 98 94 3d
       -0.23777443 -0.32937056 -1.3509392 0.07255562
000380 5a 43 f0 3d 4a 18 81 bd 19 96 bc 3c 64 d8 5f be
       0.11731596 -0.06303461 0.02302079 -0.2185989
000390 3f a5 20 be f6 ad ea 3e a8 55 81 3c a1 70 69 3e
       -0.15688036 0.45835847 0.015787914 0.22796871
0003a0 31 2b ae bd b7 dc 15 bd 26 0b 59 3d de 18 07 be
       -0.08504332 -0.036587443 0.052989148 -0.1319308
0003b0 fc 76 1d 3e 50 90 17 3c c4 41 7b 3c 02 00 41 3e
       0.1537742 0.009250715 0.015335504 0.18847659
0003c0 de 2f d5 bc a9 ef 68 bd e6 2e a9 3d 2c 14 b6 3e
       -0.026023801 -0.056869183 0.08260898 0.35562265
0003d0 25 93 99 bd 9a e4 5d 3d 62 c8 57 bd d1 14 91 3e
       -0.07498769 0.05417309 -0.052681334 0.28336194
0003e0 b9 7d d6 3d 46 0d d7 be 0c e2 1b 3e 60 d8 56 3f
       0.104731984 -0.42002314 0.15222949 0.8392391
0003f0 a9 9f 05 3d ff c5 db 3d e3 dd 22 bf 1c 05 be bd
       0.032622967 0.10731124 -0.6361982 -0.09278318

fc2.bias f4 [16]
000000 e2 64 00 3e f0 24 8a be a4 db cd 3e 42 41 f7 3d
       0.12538484 -0.26981306 0.40206635 0.12072994
000010 fe fb ad 3d c8 2b 19 3e 20 ee 1f 3e 28 16 7a 3e
       0.08495329 0.14958107 0.15618181 0.24422514
000020 37 a7 dd 3e 37 97 66 be 83 f6 1f 3e 1e 7c c9 3d
       0.43291637 -0.22518621 0.1562138 0.098381266
000030 8a 46 8e bd ff 58 0a 3f 62 df fb bd ea 07 b7 3e
       -0.06947048 0.5404205 -0.12298466 0.35748225

fc3.weight f4 [4, 16]
000000 aa c7 bb 3d f8 5e 93 be 63 c5 38 3e 91 7e cb 3d
       0.09168942 -0.28783393 0.18044047 0.0993625
000010 c5 3d 81 bb 4c 79 08 3f 54 21 ee be 17 e6 ba 3e
       -0.003944131 0.53310084 -0.46509802 0.3650367
000020 09 c4 a9 3e 20 ac f0 be 86 e7 d9 3e 65 d2 02 bf
       0.33157375 -0.4700632 0.4255945 -0.51102287
000030 67 bf 2d bd 96 90 ee 3d 7a df 84 be 01 c9 93 3e
       -0.042418864 0.11648671 -0.2595175 0.2886429
000040 2c cd b7 bc 53 bb 73 be e9 7e d6 bc e0 d5 15 be
       -0.0224367 -0.23801927 -0.026183562 -0.14632368
000050 98 65 60 3d 12 07 f5 3e ea 4a 05 be 04 22 c8 3e
       0.054784387 0.47856957 -0.13016859 0.39088452
000060 36 1c 4f 3e 15 37 d6 be 27 95 cc 3e 76 18 8b 3d
       0.20225605 -0.418389 0.39957544 0.06791775
000070 fe 03 bd 3c 3b 0f 88 3e 3c 0a 31 bd 69 e8 a6 3e
       0.023073193 0.2657412 -0.04322265 0.3259919
000080 f4 64 38 be 06 7e 9c be 7b 49 60 3e 6a fe ff 3e
       -0.1800726 -0.30564898 0.2190303 0.4999879
000090 be 4b 37 3f 7f b7 50 3e 58 f7 d5 be 86 79 4e be
       0.7159995 0.20382498 -0.4179027 -0.20163545
0000a0 9d 08 5c 3e 2f b2 cc be 2f c7 b0 3e 5f ac ca be
       0.2148766 -0.39979693 0.34526965 -0.39584634
0000b0 94 26 e1 bd d0 e8 c8 3e f0 22 0e bd 5d ba ac 3e
       -0.10993686 0.39240122 -0.034701288 0.33735934
0000c0 85 9e 03 3f 54 c8 d3 be 65 65 4d 3e 0c c0 9f be
       0.51413757 -0.41363776 0.2005821 -0.31201208
0000d0 00 2b 0c be d4 4b 22 3f 6a 00 93 be 68 4a 2c 3e
       -0.13688278 0.63396955 -0.28711253 0.16825259
0000e0 02 04 6a 3e 9d 5a c0 3c f0 4a 24 3e 63 f5 b6 be
       0.22853091 0.023480708 0.16044211 -0.3573409
0000f0 eb c2 05 3f 1e 6e 9c 3e 9e 66 df bd cc b1 e1 3d
       0.52250546 0.30552763 -0.109082446 0.1102024

fc3.bias f4 [4]
000000 60 5c 56 3e 24 c2 a7 3e 5f 50 b7 3d 4c 96 f0 3e
       0.20933676 0.32765305 0.089508764 0.46989667
